…
2023-01-18 15:27:20.990486: W tensorflow/compiler/xla/stream_executor/platform/default/dso_loader.cc:64] Could not load dynamic library 'libnvinfer_plugin.so.7'; dlerror: libnvinfer_plugin.so.7: cannot open shared object file: No such file or directory
2023-01-18 15:27:20.990491: W tensorflow/compiler/tf2tensorrt/utils/py_utils.cc:38] TF-TRT Warning: Cannot dlopen some TensorRT libraries. If you would like to use Nvidia GPU with TensorRT, please make sure the missing libraries mentioned above are installed properly.
cuda:0
Checking: Linear(in_features=4, out_features=4, bias=True)
Checking: ReLU()
Checking: Linear(in_features=4, out_features=4, bias=True)
Checking: Sequential(
  (0): Linear(in_features=4, out_features=4, bias=True)
  (1): ReLU()
  (2): Linear(in_features=4, out_features=4, bias=True)
)
Checking: ChannelAttention(
  (bottleneck): Sequential(
    (0): Linear(in_features=4, out_features=4, bias=True)
    (1): ReLU()
    (2): Linear(in_features=4, out_features=4, bias=True)
  )
)
Checking: Conv2d(2, 1, kernel_size=(1, 1), stride=(1, 1))
It has been initialized
Checking: SpatialAttention(
  (conv): Conv2d(2, 1, kernel_size=(1, 1), stride=(1, 1))
)
Checking: CBAM(
  (channel_attention): ChannelAttention(
    (bottleneck): Sequential(
      (0): Linear(in_features=4, out_features=4, bias=True)
      (1): ReLU()
      (2): Linear(in_features=4, out_features=4, bias=True)
    )
  )
  (spatial_attention): SpatialAttention(
    (conv): Conv2d(2, 1, kernel_size=(1, 1), stride=(1, 1))
  )
)
Checking: Conv2d(4, 64, kernel_size=(5, 5), stride=(1, 1))
It has been initialized
Checking: Conv2d(64, 128, kernel_size=(3, 3), stride=(1, 1))
It has been initialized
Checking: Conv2d(128, 256, kernel_size=(3, 3), stride=(1, 1))
It has been initialized
Checking: Conv2d(256, 256, kernel_size=(3, 3), stride=(1, 1))
It has been initialized
Checking: ConvTranspose2d(512, 128, kernel_size=(3, 3), stride=(1, 1))
It has been initialized
Checking: ConvTranspose2d(384, 256, kernel_size=(3, 3), stride=(1, 1))
It has been initialized
Checking: ConvTranspose2d(384, 256, kernel_size=(3, 3), stride=(1, 1))
It has been initialized
Checking: ConvTranspose2d(320, 64, kernel_size=(5, 5), stride=(1, 1))
It has been initialized
Checking: Linear(in_features=64, out_features=64, bias=True)
Checking: ReLU()
Checking: Linear(in_features=64, out_features=64, bias=True)
Checking: Sequential(
  (0): Linear(in_features=64, out_features=64, bias=True)
  (1): ReLU()
  (2): Linear(in_features=64, out_features=64, bias=True)
)
Checking: ChannelAttention(
  (bottleneck): Sequential(
    (0): Linear(in_features=64, out_features=64, bias=True)
    (1): ReLU()
    (2): Linear(in_features=64, out_features=64, bias=True)
  )
)
Checking: Conv2d(2, 1, kernel_size=(5, 5), stride=(1, 1), padding=(2, 2))
It has been initialized
Checking: SpatialAttention(
  (conv): Conv2d(2, 1, kernel_size=(5, 5), stride=(1, 1), padding=(2, 2))
)
Checking: CBAM(
  (channel_attention): ChannelAttention(
    (bottleneck): Sequential(
      (0): Linear(in_features=64, out_features=64, bias=True)
      (1): ReLU()
      (2): Linear(in_features=64, out_features=64, bias=True)
    )
  )
  (spatial_attention): SpatialAttention(
    (conv): Conv2d(2, 1, kernel_size=(5, 5), stride=(1, 1), padding=(2, 2))
  )
)
Checking: ConvTranspose2d(68, 1, kernel_size=(1, 1), stride=(1, 1))
It has been initialized
Checking: BatchNorm2d(4, eps=0.001, momentum=0.99, affine=True, track_running_stats=True)
Checking: BatchNorm2d(64, eps=0.001, momentum=0.99, affine=True, track_running_stats=True)
Checking: BatchNorm2d(128, eps=0.001, momentum=0.99, affine=True, track_running_stats=True)
…
Checking: BatchNorm2d(256, eps=0.001, momentum=0.99, affine=True, track_running_stats=True)
Checking: BatchNorm2d(128, eps=0.001, momentum=0.99, affine=True, track_running_stats=True)
Checking: BatchNorm2d(256, eps=0.001, momentum=0.99, affine=True, track_running_stats=True)
Checking: BatchNorm2d(256, eps=0.001, momentum=0.99, affine=True, track_running_stats=True)
Checking: BatchNorm2d(64, eps=0.001, momentum=0.99, affine=True, track_running_stats=True)
Checking: ELU(alpha=1.0)
Checking: FCN_Pad_Xaiver_CBAM_InOut2(
  (incab): CBAM(
    (channel_attention): ChannelAttention(
      (bottleneck): Sequential(
        (0): Linear(in_features=4, out_features=4, bias=True)
        (1): ReLU()
        (2): Linear(in_features=4, out_features=4, bias=True)
      )
    )
    (spatial_attention): SpatialAttention(
      (conv): Conv2d(2, 1, kernel_size=(1, 1), stride=(1, 1))
    )
  )
  (conv1): Conv2d(4, 64, kernel_size=(5, 5), stride=(1, 1))
  (conv2): Conv2d(64, 128, kernel_size=(3, 3), stride=(1, 1))
  (conv3): Conv2d(128, 256, kernel_size=(3, 3), stride=(1, 1))
  (conv4): Conv2d(256, 256, kernel_size=(3, 3), stride=(1, 1))
  (Tconv1): ConvTranspose2d(512, 128, kernel_size=(3, 3), stride=(1, 1))
  (Tconv2): ConvTranspose2d(384, 256, kernel_size=(3, 3), stride=(1, 1))
  (Tconv3): ConvTranspose2d(384, 256, kernel_size=(3, 3), stride=(1, 1))
  (Tconv4): ConvTranspose2d(320, 64, kernel_size=(5, 5), stride=(1, 1))
  (tcb4): CBAM(
    (channel_attention): ChannelAttention(
      (bottleneck): Sequential(
        (0): Linear(in_features=64, out_features=64, bias=True)
        (1): ReLU()
        (2): Linear(in_features=64, out_features=64, bias=True)
      )
    )
    (spatial_attention): SpatialAttention(
      (conv): Conv2d(2, 1, kernel_size=(5, 5), stride=(1, 1), padding=(2, 2))
    )
  )
  (out): ConvTranspose2d(68, 1, kernel_size=(1, 1), stride=(1, 1))
  (initial_norm): BatchNorm2d(4, eps=0.001, momentum=0.99, affine=True, track_running_stats=True)
  (bn1): BatchNorm2d(64, eps=0.001, momentum=0.99, affine=True, track_running_stats=True)
  (bn2): BatchNorm2d(128, eps=0.001, momentum=0.99, affine=True, track_running_stats=True)
  (bn3): BatchNorm2d(256, eps=0.001, momentum=0.99, affine=True, track_running_stats=True)
  (bn4): BatchNorm2d(256, eps=0.001, momentum=0.99, affine=True, track_running_stats=True)
  (tbn1): BatchNorm2d(128, eps=0.001, momentum=0.99, affine=True, track_running_stats=True)
  (tbn2): BatchNorm2d(256, eps=0.001, momentum=0.99, affine=True, track_running_stats=True)
  (tbn3): BatchNorm2d(256, eps=0.001, momentum=0.99, affine=True, track_running_stats=True)
  (tbn4): BatchNorm2d(64, eps=0.001, momentum=0.99, affine=True, track_running_stats=True)
  (elu): ELU(alpha=1.0)
)
There are  4 GPUs!
Device: [0, 1, 2, 3] will be used !
/storage3/yuning/thesis/tensor/y_plus_30-VARS-pr0.025_u_vel_v_vel_w_vel-TARGETS-pr0.025_flux/train
/storage3/yuning/thesis/tensor/y_plus_30-VARS-pr0.025_u_vel_v_vel_w_vel-TARGETS-pr0.025_flux/validation
/storage3/yuning/thesis/models/2023-01-18 maded!
…
